…
I1221 14:36:27.127706 26680 net.cpp:322] The NetState phase (0) differed from the phase (1) specified by a rule in layer mnist
I1221 14:36:27.127727 26680 net.cpp:322] The NetState phase (0) differed from the phase (1) specified by a rule in layer accuracy
I1221 14:36:27.127821 26680 net.cpp:58] Initializing net from parameters: 
name: "LeNet"
state {
  phase: TRAIN
  level: 0
  stage: ""
}
layer {
  name: "mnist"
  type: "Data"
  top: "data"
  top: "label"
  include {
    phase: TRAIN
  }
  transform_param {
    scale: 0.00390625
  }
  data_param {
    source: "examples/mnist/mnist_train_lmdb"
    batch_size: 64
    backend: LMDB
  }
}
layer {
  name: "conv1"
  type: "Convolution"
  bottom: "data"
  top: "conv1"
  param {
    lr_mult: 1
  }
  param {
    lr_mult: 2
  }
  convolution_param {
    num_output: 20
    kernel_size: 5
    stride: 1
    weight_filler {
      type: "gabor"
    }
    bias_filler {
      type: "constant"
    }
  }
}
layer {
  name: "pool1"
  type: "Pooling"
  bottom: "conv1"
  top: "pool1"
  pooling_param {
    pool: MAX
    kernel_size: 2
    stride: 2
  }
}
layer {
  name: "conv2"
  type: "Convolution"
  bottom: "pool1"
  top: "conv2"
  param {
    lr_mult: 1
  }
  param {
    lr_mult: 2
  }
  convolution_param {
    num_output: 50
    kernel_size: 5
    stride: 1
    weight_filler {
      type: "xavier"
    }
    bias_filler {
      type: "constant"
    }
  }
}
layer {
  name: "pool2"
  type: "Pooling"
  bottom: "conv2"
  top: "pool2"
  pooling_param {
    pool: MAX
    kernel_size: 2
    stride: 2
  }
}
layer {
  name: "ip1"
  type: "InnerProduct"
  bottom: "pool2"
  top: "ip1"
  param {
    lr_mult: 1
  }
  param {
    lr_mult: 2
  }
  inner_product_param {
    num_output: 500
    weight_filler {
      type: "xavier"
    }
    bias_filler {
      type: "constant"
    }
  }
}
layer {
  name: "relu1"
  type: "ReLU"
  bottom: "ip1"
  top: "ip1"
}
layer {
  name: "ip2"
  type: "InnerProduct"
  bottom: "ip1"
  top: "ip2"
  param {
    lr_mult: 1
  }
  param {
    lr_mult: 2
  }
  inner_product_param {
    num_output: 10
    weight_filler {
      type: "xavier"
    }
    bias_filler {
      type: "constant"
    }
  }
}
layer {
  name: "loss"
  type: "SoftmaxWithLoss"
  bottom: "ip2"
  bottom: "label"
  top: "loss"
}
I1221 14:36:27.127900 26680 layer_factory.hpp:77] Creating layer mnist
I1221 14:36:27.128335 26680 net.cpp:100] Creating Layer mnist
I1221 14:36:27.128348 26680 net.cpp:408] mnist -> data
I1221 14:36:27.128378 26680 net.cpp:408] mnist -> label
I1221 14:36:27.129323 26681 db_lmdb.cpp:35] Opened lmdb examples/mnist/mnist_train_lmdb
I1221 14:36:27.129940 26680 data_layer.cpp:41] output data size: 64,1,28,28
I1221 14:36:27.130332 26680 net.cpp:150] Setting up mnist
I1221 14:36:27.130354 26680 net.cpp:157] Top shape: 64 1 28 28 (50176)
I1221 14:36:27.130364 26680 net.cpp:157] Top shape: 64 (64)
I1221 14:36:27.130370 26680 net.cpp:165] Memory required for data: 200960
I1221 14:36:27.130383 26680 layer_factory.hpp:77] Creating layer conv1
I1221 14:36:27.130405 26680 net.cpp:100] Creating Layer conv1
I1221 14:36:27.130414 26680 net.cpp:434] conv1 <- data
I1221 14:36:27.130430 26680 net.cpp:408] conv1 -> conv1
I1221 14:36:27.130570 26680 net.cpp:150] Setting up conv1
I1221 14:36:27.130580 26680 net.cpp:157] Top shape: 64 20 24 24 (737280)
I1221 14:36:27.130586 26680 net.cpp:165] Memory required for data: 3150080
I1221 14:36:27.130605 26680 layer_factory.hpp:77] Creating layer pool1
I1221 14:36:27.130617 26680 net.cpp:100] Creating Layer pool1
I1221 14:36:27.130625 26680 net.cpp:434] pool1 <- conv1
I1221 14:36:27.130656 26680 net.cpp:408] pool1 -> pool1
I1221 14:36:27.130681 26680 net.cpp:150] Setting up pool1
I1221 14:36:27.130691 26680 net.cpp:157] Top shape: 64 20 12 12 (184320)
I1221 14:36:27.130697 26680 net.cpp:165] Memory required for data: 3887360
I1221 14:36:27.130702 26680 layer_factory.hpp:77] Creating layer conv2
I1221 14:36:27.130714 26680 net.cpp:100] Creating Layer conv2
I1221 14:36:27.130722 26680 net.cpp:434] conv2 <- pool1
I1221 14:36:27.130730 26680 net.cpp:408] conv2 -> conv2
I1221 14:36:27.131989 26680 net.cpp:150] Setting up conv2
I1221 14:36:27.132011 26680 net.cpp:157] Top shape: 64 50 8 8 (204800)
I1221 14:36:27.132019 26680 net.cpp:165] Memory required for data: 4706560
I1221 14:36:27.132032 26680 layer_factory.hpp:77] Creating layer pool2
I1221 14:36:27.132045 26680 net.cpp:100] Creating Layer pool2
I1221 14:36:27.132051 26680 net.cpp:434] pool2 <- conv2
I1221 14:36:27.132061 26680 net.cpp:408] pool2 -> pool2
I1221 14:36:27.132076 26680 net.cpp:150] Setting up pool2
I1221 14:36:27.132083 26680 net.cpp:157] Top shape: 64 50 4 4 (51200)
I1221 14:36:27.132089 26680 net.cpp:165] Memory required for data: 4911360
I1221 14:36:27.132095 26680 layer_factory.hpp:77] Creating layer ip1
I1221 14:36:27.132107 26680 net.cpp:100] Creating Layer ip1
I1221 14:36:27.132113 26680 net.cpp:434] ip1 <- pool2
I1221 14:36:27.132123 26680 net.cpp:408] ip1 -> ip1
I1221 14:36:27.136502 26680 net.cpp:150] Setting up ip1
I1221 14:36:27.136538 26680 net.cpp:157] Top shape: 64 500 (32000)
I1221 14:36:27.136546 26680 net.cpp:165] Memory required for data: 5039360
I1221 14:36:27.136569 26680 layer_factory.hpp:77] Creating layer relu1
I1221 14:36:27.136585 26680 net.cpp:100] Creating Layer relu1
I1221 14:36:27.136593 26680 net.cpp:434] relu1 <- ip1
I1221 14:36:27.136605 26680 net.cpp:395] relu1 -> ip1 (in-place)
I1221 14:36:27.136634 26680 net.cpp:150] Setting up relu1
I1221 14:36:27.136642 26680 net.cpp:157] Top shape: 64 500 (32000)
I1221 14:36:27.136648 26680 net.cpp:165] Memory required for data: 5167360
I1221 14:36:27.136654 26680 layer_factory.hpp:77] Creating layer ip2
I1221 14:36:27.136665 26680 net.cpp:100] Creating Layer ip2
I1221 14:36:27.136672 26680 net.cpp:434] ip2 <- ip1
I1221 14:36:27.136682 26680 net.cpp:408] ip2 -> ip2
I1221 14:36:27.136775 26680 net.cpp:150] Setting up ip2
I1221 14:36:27.136785 26680 net.cpp:157] Top shape: 64 10 (640)
I1221 14:36:27.136790 26680 net.cpp:165] Memory required for data: 5169920
I1221 14:36:27.136801 26680 layer_factory.hpp:77] Creating layer loss
I1221 14:36:27.136813 26680 net.cpp:100] Creating Layer loss
I1221 14:36:27.136819 26680 net.cpp:434] loss <- ip2
I1221 14:36:27.136826 26680 net.cpp:434] loss <- label
I1221 14:36:27.136837 26680 net.cpp:408] loss -> loss
I1221 14:36:27.136859 26680 layer_factory.hpp:77] Creating layer loss
…
I1221 14:36:27.137547 26680 solver.cpp:181] Creating test net (#0) specified by net file: examples/mnist/lenet_train_test.prototxt
I1221 14:36:27.137588 26680 net.cpp:322] The NetState phase (1) differed from the phase (0) specified by a rule in layer mnist
I1221 14:36:27.137742 26680 net.cpp:58] Initializing net from parameters: 
name: "LeNet"
state {
  phase: TEST
}
layer {
  name: "mnist"
  type: "Data"
  top: "data"
  top: "label"
  include {
    phase: TEST
  }
  transform_param {
    scale: 0.00390625
  }
  data_param {
    source: "examples/mnist/mnist_test_lmdb"
    batch_size: 100
    backend: LMDB
  }
}
layer {
  name: "conv1"
  type: "Convolution"
  bottom: "data"
  top: "conv1"
  param {
    lr_mult: 1
  }
  param {
    lr_mult: 2
  }
  convolution_param {
    num_output: 20
    kernel_size: 5
    stride: 1
    weight_filler {
      type: "gabor"
    }
    bias_filler {
      type: "constant"
    }
  }
}
layer {
  name: "pool1"
  type: "Pooling"
  bottom: "conv1"
  top: "pool1"
  pooling_param {
    pool: MAX
    kernel_size: 2
    stride: 2
  }
}
layer {
  name: "conv2"
  type: "Convolution"
  bottom: "pool1"
  top: "conv2"
  param {
    lr_mult: 1
  }
  param {
    lr_mult: 2
  }
  convolution_param {
    num_output: 50
    kernel_size: 5
    stride: 1
    weight_filler {
      type: "xavier"
    }
    bias_filler {
      type: "constant"
    }
  }
}
layer {
  name: "pool2"
  type: "Pooling"
  bottom: "conv2"
  top: "pool2"
  pooling_param {
    pool: MAX
    kernel_size: 2
    stride: 2
  }
}
layer {
  name: "ip1"
  type: "InnerProduct"
  bottom: "pool2"
  top: "ip1"
  param {
    lr_mult: 1
  }
  param {
    lr_mult: 2
  }
  inner_product_param {
    num_output: 500
    weight_filler {
      type: "xavier"
    }
    bias_filler {
      type: "constant"
    }
  }
}
layer {
  name: "relu1"
  type: "ReLU"
  bottom: "ip1"
  top: "ip1"
}
layer {
  name: "ip2"
  type: "InnerProduct"
  bottom: "ip1"
  top: "ip2"
  param {
    lr_mult: 1
  }
  param {
    lr_mult: 2
  }
  inner_product_param {
    num_output: 10
    weight_filler {
      type: "xavier"
    }
    bias_filler {
      type: "constant"
    }
  }
}
layer {
  name: "accuracy"
  type: "Accuracy"
  bottom: "ip2"
  bottom: "label"
  top: "accuracy"
  include {
    phase: TEST
  }
}
layer {
  name: "loss"
  type: "SoftmaxWithLoss"
  bottom: "ip2"
  bottom: "label"
  top: "loss"
}
I1221 14:36:27.137838 26680 layer_factory.hpp:77] Creating layer mnist
I1221 14:36:27.138029 26680 net.cpp:100] Creating Layer mnist
I1221 14:36:27.138043 26680 net.cpp:408] mnist -> data
I1221 14:36:27.138057 26680 net.cpp:408] mnist -> label
I1221 14:36:27.139178 26683 db_lmdb.cpp:35] Opened lmdb examples/mnist/mnist_test_lmdb
I1221 14:36:27.139291 26680 data_layer.cpp:41] output data size: 100,1,28,28
I1221 14:36:27.140686 26680 net.cpp:150] Setting up mnist
I1221 14:36:27.140851 26680 net.cpp:157] Top shape: 100 1 28 28 (78400)
I1221 14:36:27.140915 26680 net.cpp:157] Top shape: 100 (100)
I1221 14:36:27.140976 26680 net.cpp:165] Memory required for data: 314000
I1221 14:36:27.141041 26680 layer_factory.hpp:77] Creating layer label_mnist_1_split
I1221 14:36:27.141113 26680 net.cpp:100] Creating Layer label_mnist_1_split
I1221 14:36:27.141175 26680 net.cpp:434] label_mnist_1_split <- label
I1221 14:36:27.141247 26680 net.cpp:408] label_mnist_1_split -> label_mnist_1_split_0
I1221 14:36:27.142436 26680 net.cpp:408] label_mnist_1_split -> label_mnist_1_split_1
I1221 14:36:27.142586 26680 net.cpp:150] Setting up label_mnist_1_split
I1221 14:36:27.142681 26680 net.cpp:157] Top shape: 100 (100)
I1221 14:36:27.142750 26680 net.cpp:157] Top shape: 100 (100)
I1221 14:36:27.142833 26680 net.cpp:165] Memory required for data: 314800
I1221 14:36:27.142896 26680 layer_factory.hpp:77] Creating layer conv1
I1221 14:36:27.142988 26680 net.cpp:100] Creating Layer conv1
I1221 14:36:27.143050 26680 net.cpp:434] conv1 <- data
I1221 14:36:27.143121 26680 net.cpp:408] conv1 -> conv1
I1221 14:36:27.143726 26680 net.cpp:150] Setting up conv1
I1221 14:36:27.143913 26680 net.cpp:157] Top shape: 100 20 24 24 (1152000)
I1221 14:36:27.143977 26680 net.cpp:165] Memory required for data: 4922800
I1221 14:36:27.144050 26680 layer_factory.hpp:77] Creating layer pool1
I1221 14:36:27.144170 26680 net.cpp:100] Creating Layer pool1
I1221 14:36:27.144248 26680 net.cpp:434] pool1 <- conv1
I1221 14:36:27.144320 26680 net.cpp:408] pool1 -> pool1
I1221 14:36:27.144390 26680 net.cpp:150] Setting up pool1
I1221 14:36:27.144454 26680 net.cpp:157] Top shape: 100 20 12 12 (288000)
I1221 14:36:27.144511 26680 net.cpp:165] Memory required for data: 6074800
I1221 14:36:27.144570 26680 layer_factory.hpp:77] Creating layer conv2
I1221 14:36:27.144644 26680 net.cpp:100] Creating Layer conv2
I1221 14:36:27.144704 26680 net.cpp:434] conv2 <- pool1
I1221 14:36:27.144771 26680 net.cpp:408] conv2 -> conv2
I1221 14:36:27.145159 26680 net.cpp:150] Setting up conv2
I1221 14:36:27.145226 26680 net.cpp:157] Top shape: 100 50 8 8 (320000)
I1221 14:36:27.145285 26680 net.cpp:165] Memory required for data: 7354800
I1221 14:36:27.145354 26680 layer_factory.hpp:77] Creating layer pool2
I1221 14:36:27.145421 26680 net.cpp:100] Creating Layer pool2
I1221 14:36:27.145480 26680 net.cpp:434] pool2 <- conv2
I1221 14:36:27.145542 26680 net.cpp:408] pool2 -> pool2
I1221 14:36:27.145611 26680 net.cpp:150] Setting up pool2
I1221 14:36:27.145671 26680 net.cpp:157] Top shape: 100 50 4 4 (80000)
I1221 14:36:27.145819 26680 net.cpp:165] Memory required for data: 7674800
I1221 14:36:27.145887 26680 layer_factory.hpp:77] Creating layer ip1
I1221 14:36:27.145967 26680 net.cpp:100] Creating Layer ip1
I1221 14:36:27.146030 26680 net.cpp:434] ip1 <- pool2
I1221 14:36:27.146868 26680 net.cpp:408] ip1 -> ip1
I1221 14:36:27.152329 26680 net.cpp:150] Setting up ip1
I1221 14:36:27.152561 26680 net.cpp:157] Top shape: 100 500 (50000)
I1221 14:36:27.152573 26680 net.cpp:165] Memory required for data: 7874800
I1221 14:36:27.152595 26680 layer_factory.hpp:77] Creating layer relu1
I1221 14:36:27.152609 26680 net.cpp:100] Creating Layer relu1
I1221 14:36:27.152664 26680 net.cpp:434] relu1 <- ip1
I1221 14:36:27.152727 26680 net.cpp:395] relu1 -> ip1 (in-place)
I1221 14:36:27.152741 26680 net.cpp:150] Setting up relu1
I1221 14:36:27.152750 26680 net.cpp:157] Top shape: 100 500 (50000)
I1221 14:36:27.152755 26680 net.cpp:165] Memory required for data: 8074800
I1221 14:36:27.152884 26680 layer_factory.hpp:77] Creating layer ip2
I1221 14:36:27.152905 26680 net.cpp:100] Creating Layer ip2
I1221 14:36:27.152911 26680 net.cpp:434] ip2 <- ip1
I1221 14:36:27.152921 26680 net.cpp:408] ip2 -> ip2
I1221 14:36:27.153095 26680 net.cpp:150] Setting up ip2
I1221 14:36:27.153107 26680 net.cpp:157] Top shape: 100 10 (1000)
I1221 14:36:27.153113 26680 net.cpp:165] Memory required for data: 8078800
I1221 14:36:27.153123 26680 layer_factory.hpp:77] Creating layer ip2_ip2_0_split
I1221 14:36:27.153133 26680 net.cpp:100] Creating Layer ip2_ip2_0_split
I1221 14:36:27.153139 26680 net.cpp:434] ip2_ip2_0_split <- ip2
I1221 14:36:27.153193 26680 net.cpp:408] ip2_ip2_0_split -> ip2_ip2_0_split_0
I1221 14:36:27.153282 26680 net.cpp:408] ip2_ip2_0_split -> ip2_ip2_0_split_1
I1221 14:36:27.153300 26680 net.cpp:150] Setting up ip2_ip2_0_split
I1221 14:36:27.153308 26680 net.cpp:157] Top shape: 100 10 (1000)
I1221 14:36:27.153316 26680 net.cpp:157] Top shape: 100 10 (1000)
I1221 14:36:27.153321 26680 net.cpp:165] Memory required for data: 8086800
I1221 14:36:27.153326 26680 layer_factory.hpp:77] Creating layer accuracy
I1221 14:36:27.153383 26680 net.cpp:100] Creating Layer accuracy
I1221 14:36:27.153466 26680 net.cpp:434] accuracy <- ip2_ip2_0_split_0
I1221 14:36:27.153479 26680 net.cpp:434] accuracy <- label_mnist_1_split_0
I1221 14:36:27.153492 26680 net.cpp:408] accuracy -> accuracy
…
