…
I1222 09:51:11.161213   416 net.cpp:322] The NetState phase (0) differed from the phase (1) specified by a rule in layer mnist
I1222 09:51:11.161455   416 net.cpp:322] The NetState phase (0) differed from the phase (1) specified by a rule in layer accuracy
I1222 09:51:11.161672   416 net.cpp:58] Initializing net from parameters: 
name: "LeNet"
state {
  phase: TRAIN
  level: 0
  stage: ""
}
layer {
  name: "mnist"
  type: "Data"
  top: "data"
  top: "label"
  include {
    phase: TRAIN
  }
  transform_param {
    scale: 0.00390625
  }
  data_param {
    source: "examples/mnist/mnist_train_lmdb"
    batch_size: 64
    backend: LMDB
  }
}
layer {
  name: "conv1"
  type: "Convolution"
  bottom: "data"
  top: "conv1"
  param {
    lr_mult: 1
  }
  param {
    lr_mult: 2
  }
  convolution_param {
    num_output: 20
    kernel_size: 5
    stride: 1
    weight_filler {
      type: "xavier"
    }
    bias_filler {
      type: "constant"
    }
  }
}
layer {
  name: "pool1"
  type: "Pooling"
  bottom: "conv1"
  top: "pool1"
  pooling_param {
    pool: MAX
    kernel_size: 2
    stride: 2
  }
}
layer {
  name: "conv2"
  type: "Convolution"
  bottom: "pool1"
  top: "conv2"
  param {
    lr_mult: 1
  }
  param {
    lr_mult: 2
  }
  convolution_param {
    num_output: 50
    kernel_size: 5
    stride: 1
    weight_filler {
      type: "xavier"
    }
    bias_filler {
      type: "constant"
    }
  }
}
layer {
  name: "pool2"
  type: "Pooling"
  bottom: "conv2"
  top: "pool2"
  pooling_param {
    pool: MAX
    kernel_size: 2
    stride: 2
  }
}
layer {
  name: "ip1"
  type: "InnerProduct"
  bottom: "pool2"
  top: "ip1"
  param {
    lr_mult: 1
  }
  param {
    lr_mult: 2
  }
  inner_product_param {
    num_output: 500
    weight_filler {
      type: "xavier"
    }
    bias_filler {
      type: "constant"
    }
  }
}
layer {
  name: "relu1"
  type: "ReLU"
  bottom: "ip1"
  top: "ip1"
}
layer {
  name: "ip2"
  type: "InnerProduct"
  bottom: "ip1"
  top: "ip2"
  param {
    lr_mult: 1
  }
  param {
    lr_mult: 2
  }
  inner_product_param {
    num_output: 10
    weight_filler {
      type: "xavier"
    }
    bias_filler {
      type: "constant"
    }
  }
}
layer {
  name: "loss"
  type: "SoftmaxWithLoss"
  bottom: "ip2"
  bottom: "label"
  top: "loss"
}
I1222 09:51:11.164119   416 layer_factory.hpp:77] Creating layer mnist
I1222 09:51:11.180418   416 net.cpp:100] Creating Layer mnist
I1222 09:51:11.189841   416 net.cpp:408] mnist -> data
I1222 09:51:11.205409   419 db_lmdb.cpp:35] Opened lmdb examples/mnist/mnist_train_lmdb
I1222 09:51:11.205710   416 net.cpp:408] mnist -> label
I1222 09:51:11.228639   416 data_layer.cpp:41] output data size: 64,1,28,28
I1222 09:51:11.230275   416 net.cpp:150] Setting up mnist
I1222 09:51:11.230417   416 net.cpp:157] Top shape: 64 1 28 28 (50176)
I1222 09:51:11.230481   416 net.cpp:157] Top shape: 64 (64)
I1222 09:51:11.230540   416 net.cpp:165] Memory required for data: 200960
I1222 09:51:11.230608   416 layer_factory.hpp:77] Creating layer conv1
I1222 09:51:11.231068   416 net.cpp:100] Creating Layer conv1
I1222 09:51:11.231093   416 net.cpp:434] conv1 <- data
I1222 09:51:11.231122   416 net.cpp:408] conv1 -> conv1
I1222 09:51:11.259730   416 net.cpp:150] Setting up conv1
I1222 09:51:11.260002   416 net.cpp:157] Top shape: 64 20 24 24 (737280)
I1222 09:51:11.260112   416 net.cpp:165] Memory required for data: 3150080
I1222 09:51:11.260277   416 layer_factory.hpp:77] Creating layer pool1
I1222 09:51:11.260520   416 net.cpp:100] Creating Layer pool1
I1222 09:51:11.260758   416 net.cpp:434] pool1 <- conv1
I1222 09:51:11.260892   416 net.cpp:408] pool1 -> pool1
I1222 09:51:11.261181   416 net.cpp:150] Setting up pool1
I1222 09:51:11.261198   416 net.cpp:157] Top shape: 64 20 12 12 (184320)
I1222 09:51:11.261204   416 net.cpp:165] Memory required for data: 3887360
I1222 09:51:11.261211   416 layer_factory.hpp:77] Creating layer conv2
I1222 09:51:11.261229   416 net.cpp:100] Creating Layer conv2
I1222 09:51:11.261235   416 net.cpp:434] conv2 <- pool1
I1222 09:51:11.261246   416 net.cpp:408] conv2 -> conv2
I1222 09:51:11.261687   416 net.cpp:150] Setting up conv2
I1222 09:51:11.261709   416 net.cpp:157] Top shape: 64 50 8 8 (204800)
I1222 09:51:11.261716   416 net.cpp:165] Memory required for data: 4706560
I1222 09:51:11.261729   416 layer_factory.hpp:77] Creating layer pool2
I1222 09:51:11.261742   416 net.cpp:100] Creating Layer pool2
I1222 09:51:11.261873   416 net.cpp:434] pool2 <- conv2
I1222 09:51:11.261886   416 net.cpp:408] pool2 -> pool2
I1222 09:51:11.261900   416 net.cpp:150] Setting up pool2
I1222 09:51:11.261909   416 net.cpp:157] Top shape: 64 50 4 4 (51200)
I1222 09:51:11.261914   416 net.cpp:165] Memory required for data: 4911360
I1222 09:51:11.261921   416 layer_factory.hpp:77] Creating layer ip1
I1222 09:51:11.262056   416 net.cpp:100] Creating Layer ip1
I1222 09:51:11.262068   416 net.cpp:434] ip1 <- pool2
I1222 09:51:11.262079   416 net.cpp:408] ip1 -> ip1
I1222 09:51:11.266435   416 net.cpp:150] Setting up ip1
I1222 09:51:11.266468   416 net.cpp:157] Top shape: 64 500 (32000)
I1222 09:51:11.266474   416 net.cpp:165] Memory required for data: 5039360
I1222 09:51:11.266494   416 layer_factory.hpp:77] Creating layer relu1
I1222 09:51:11.266506   416 net.cpp:100] Creating Layer relu1
I1222 09:51:11.266513   416 net.cpp:434] relu1 <- ip1
I1222 09:51:11.266523   416 net.cpp:395] relu1 -> ip1 (in-place)
I1222 09:51:11.266718   416 net.cpp:150] Setting up relu1
I1222 09:51:11.266732   416 net.cpp:157] Top shape: 64 500 (32000)
I1222 09:51:11.266739   416 net.cpp:165] Memory required for data: 5167360
I1222 09:51:11.266746   416 layer_factory.hpp:77] Creating layer ip2
I1222 09:51:11.266757   416 net.cpp:100] Creating Layer ip2
I1222 09:51:11.266763   416 net.cpp:434] ip2 <- ip1
I1222 09:51:11.266773   416 net.cpp:408] ip2 -> ip2
I1222 09:51:11.266993   416 net.cpp:150] Setting up ip2
I1222 09:51:11.267007   416 net.cpp:157] Top shape: 64 10 (640)
I1222 09:51:11.267014   416 net.cpp:165] Memory required for data: 5169920
I1222 09:51:11.267024   416 layer_factory.hpp:77] Creating layer loss
I1222 09:51:11.267037   416 net.cpp:100] Creating Layer loss
I1222 09:51:11.267045   416 net.cpp:434] loss <- ip2
I1222 09:51:11.267097   416 net.cpp:434] loss <- label
I1222 09:51:11.267197   416 net.cpp:408] loss -> loss
I1222 09:51:11.280473   416 layer_factory.hpp:77] Creating layer loss
…
I1222 09:51:11.283018   416 solver.cpp:181] Creating test net (#0) specified by net file: examples/mnist/lenet_train_test.prototxt
I1222 09:51:11.283061   416 net.cpp:322] The NetState phase (1) differed from the phase (0) specified by a rule in layer mnist
I1222 09:51:11.283210   416 net.cpp:58] Initializing net from parameters: 
name: "LeNet"
state {
  phase: TEST
}
layer {
  name: "mnist"
  type: "Data"
  top: "data"
  top: "label"
  include {
    phase: TEST
  }
  transform_param {
    scale: 0.00390625
  }
  data_param {
    source: "examples/mnist/mnist_test_lmdb"
    batch_size: 100
    backend: LMDB
  }
}
layer {
  name: "conv1"
  type: "Convolution"
  bottom: "data"
  top: "conv1"
  param {
    lr_mult: 1
  }
  param {
    lr_mult: 2
  }
  convolution_param {
    num_output: 20
    kernel_size: 5
    stride: 1
    weight_filler {
      type: "xavier"
    }
    bias_filler {
      type: "constant"
    }
  }
}
layer {
  name: "pool1"
  type: "Pooling"
  bottom: "conv1"
  top: "pool1"
  pooling_param {
    pool: MAX
    kernel_size: 2
    stride: 2
  }
}
layer {
  name: "conv2"
  type: "Convolution"
  bottom: "pool1"
  top: "conv2"
  param {
    lr_mult: 1
  }
  param {
    lr_mult: 2
  }
  convolution_param {
    num_output: 50
    kernel_size: 5
    stride: 1
    weight_filler {
      type: "xavier"
    }
    bias_filler {
      type: "constant"
    }
  }
}
layer {
  name: "pool2"
  type: "Pooling"
  bottom: "conv2"
  top: "pool2"
  pooling_param {
    pool: MAX
    kernel_size: 2
    stride: 2
  }
}
layer {
  name: "ip1"
  type: "InnerProduct"
  bottom: "pool2"
  top: "ip1"
  param {
    lr_mult: 1
  }
  param {
    lr_mult: 2
  }
  inner_product_param {
    num_output: 500
    weight_filler {
      type: "xavier"
    }
    bias_filler {
      type: "constant"
    }
  }
}
layer {
  name: "relu1"
  type: "ReLU"
  bottom: "ip1"
  top: "ip1"
}
layer {
  name: "ip2"
  type: "InnerProduct"
  bottom: "ip1"
  top: "ip2"
  param {
    lr_mult: 1
  }
  param {
    lr_mult: 2
  }
  inner_product_param {
    num_output: 10
    weight_filler {
      type: "xavier"
    }
    bias_filler {
      type: "constant"
    }
  }
}
layer {
  name: "accuracy"
  type: "Accuracy"
  bottom: "ip2"
  bottom: "label"
  top: "accuracy"
  include {
    phase: TEST
  }
}
layer {
  name: "loss"
  type: "SoftmaxWithLoss"
  bottom: "ip2"
  bottom: "label"
  top: "loss"
}
I1222 09:51:11.283352   416 layer_factory.hpp:77] Creating layer mnist
I1222 09:51:11.284425   416 net.cpp:100] Creating Layer mnist
I1222 09:51:11.284521   416 net.cpp:408] mnist -> data
I1222 09:51:11.284548   416 net.cpp:408] mnist -> label
I1222 09:51:11.302981   421 db_lmdb.cpp:35] Opened lmdb examples/mnist/mnist_test_lmdb
I1222 09:51:11.308485   416 data_layer.cpp:41] output data size: 100,1,28,28
I1222 09:51:11.312862   416 net.cpp:150] Setting up mnist
I1222 09:51:11.313016   416 net.cpp:157] Top shape: 100 1 28 28 (78400)
I1222 09:51:11.313122   416 net.cpp:157] Top shape: 100 (100)
I1222 09:51:11.313222   416 net.cpp:165] Memory required for data: 314000
I1222 09:51:11.313326   416 layer_factory.hpp:77] Creating layer label_mnist_1_split
I1222 09:51:11.313437   416 net.cpp:100] Creating Layer label_mnist_1_split
I1222 09:51:11.313539   416 net.cpp:434] label_mnist_1_split <- label
I1222 09:51:11.314332   416 net.cpp:408] label_mnist_1_split -> label_mnist_1_split_0
I1222 09:51:11.314507   416 net.cpp:408] label_mnist_1_split -> label_mnist_1_split_1
I1222 09:51:11.316190   416 net.cpp:150] Setting up label_mnist_1_split
I1222 09:51:11.316336   416 net.cpp:157] Top shape: 100 (100)
I1222 09:51:11.316437   416 net.cpp:157] Top shape: 100 (100)
I1222 09:51:11.316535   416 net.cpp:165] Memory required for data: 314800
I1222 09:51:11.316635   416 layer_factory.hpp:77] Creating layer conv1
I1222 09:51:11.316752   416 net.cpp:100] Creating Layer conv1
I1222 09:51:11.316854   416 net.cpp:434] conv1 <- data
I1222 09:51:11.316959   416 net.cpp:408] conv1 -> conv1
I1222 09:51:11.317108   416 net.cpp:150] Setting up conv1
I1222 09:51:11.317211   416 net.cpp:157] Top shape: 100 20 24 24 (1152000)
I1222 09:51:11.317307   416 net.cpp:165] Memory required for data: 4922800
I1222 09:51:11.317415   416 layer_factory.hpp:77] Creating layer pool1
I1222 09:51:11.317572   416 net.cpp:100] Creating Layer pool1
I1222 09:51:11.317692   416 net.cpp:434] pool1 <- conv1
I1222 09:51:11.317800   416 net.cpp:408] pool1 -> pool1
I1222 09:51:11.317909   416 net.cpp:150] Setting up pool1
I1222 09:51:11.318009   416 net.cpp:157] Top shape: 100 20 12 12 (288000)
I1222 09:51:11.318107   416 net.cpp:165] Memory required for data: 6074800
I1222 09:51:11.318205   416 layer_factory.hpp:77] Creating layer conv2
I1222 09:51:11.318346   416 net.cpp:100] Creating Layer conv2
I1222 09:51:11.318444   416 net.cpp:434] conv2 <- pool1
I1222 09:51:11.318550   416 net.cpp:408] conv2 -> conv2
I1222 09:51:11.318943   422 blocking_queue.cpp:50] Waiting for data
I1222 09:51:11.319250   416 net.cpp:150] Setting up conv2
I1222 09:51:11.319386   416 net.cpp:157] Top shape: 100 50 8 8 (320000)
I1222 09:51:11.319495   416 net.cpp:165] Memory required for data: 7354800
I1222 09:51:11.319615   416 layer_factory.hpp:77] Creating layer pool2
I1222 09:51:11.320021   416 net.cpp:100] Creating Layer pool2
I1222 09:51:11.320142   416 net.cpp:434] pool2 <- conv2
I1222 09:51:11.320255   416 net.cpp:408] pool2 -> pool2
I1222 09:51:11.320377   416 net.cpp:150] Setting up pool2
I1222 09:51:11.320492   416 net.cpp:157] Top shape: 100 50 4 4 (80000)
I1222 09:51:11.320600   416 net.cpp:165] Memory required for data: 7674800
I1222 09:51:11.320710   416 layer_factory.hpp:77] Creating layer ip1
I1222 09:51:11.320837   416 net.cpp:100] Creating Layer ip1
I1222 09:51:11.320948   416 net.cpp:434] ip1 <- pool2
I1222 09:51:11.321066   416 net.cpp:408] ip1 -> ip1
I1222 09:51:11.326727   416 net.cpp:150] Setting up ip1
I1222 09:51:11.327070   416 net.cpp:157] Top shape: 100 500 (50000)
I1222 09:51:11.327270   416 net.cpp:165] Memory required for data: 7874800
I1222 09:51:11.327442   416 layer_factory.hpp:77] Creating layer relu1
I1222 09:51:11.327602   416 net.cpp:100] Creating Layer relu1
I1222 09:51:11.327756   416 net.cpp:434] relu1 <- ip1
I1222 09:51:11.327958   416 net.cpp:395] relu1 -> ip1 (in-place)
I1222 09:51:11.328119   416 net.cpp:150] Setting up relu1
I1222 09:51:11.328271   416 net.cpp:157] Top shape: 100 500 (50000)
I1222 09:51:11.328451   416 net.cpp:165] Memory required for data: 8074800
I1222 09:51:11.328644   416 layer_factory.hpp:77] Creating layer ip2
I1222 09:51:11.328805   416 net.cpp:100] Creating Layer ip2
I1222 09:51:11.328956   416 net.cpp:434] ip2 <- ip1
I1222 09:51:11.329111   416 net.cpp:408] ip2 -> ip2
I1222 09:51:11.329349   416 net.cpp:150] Setting up ip2
I1222 09:51:11.329509   416 net.cpp:157] Top shape: 100 10 (1000)
I1222 09:51:11.329520   416 net.cpp:165] Memory required for data: 8078800
I1222 09:51:11.329532   416 layer_factory.hpp:77] Creating layer ip2_ip2_0_split
I1222 09:51:11.329545   416 net.cpp:100] Creating Layer ip2_ip2_0_split
I1222 09:51:11.329551   416 net.cpp:434] ip2_ip2_0_split <- ip2
I1222 09:51:11.329560   416 net.cpp:408] ip2_ip2_0_split -> ip2_ip2_0_split_0
I1222 09:51:11.329573   416 net.cpp:408] ip2_ip2_0_split -> ip2_ip2_0_split_1
I1222 09:51:11.329639   416 net.cpp:150] Setting up ip2_ip2_0_split
I1222 09:51:11.329649   416 net.cpp:157] Top shape: 100 10 (1000)
I1222 09:51:11.329658   416 net.cpp:157] Top shape: 100 10 (1000)
I1222 09:51:11.329664   416 net.cpp:165] Memory required for data: 8086800
I1222 09:51:11.329670   416 layer_factory.hpp:77] Creating layer accuracy
I1222 09:51:11.330124   416 net.cpp:100] Creating Layer accuracy
I1222 09:51:11.330144   416 net.cpp:434] accuracy <- ip2_ip2_0_split_0
I1222 09:51:11.330157   416 net.cpp:434] accuracy <- label_mnist_1_split_0
I1222 09:51:11.330178   416 net.cpp:408] accuracy -> accuracy
…
