…
I1221 15:47:56.379529 30043 net.cpp:322] The NetState phase (0) differed from the phase (1) specified by a rule in layer mnist
I1221 15:47:56.379652 30043 net.cpp:322] The NetState phase (0) differed from the phase (1) specified by a rule in layer accuracy
I1221 15:47:56.379881 30043 net.cpp:58] Initializing net from parameters: 
name: "LeNet"
state {
  phase: TRAIN
  level: 0
  stage: ""
}
layer {
  name: "mnist"
  type: "Data"
  top: "data"
  top: "label"
  include {
    phase: TRAIN
  }
  transform_param {
    scale: 0.00390625
  }
  data_param {
    source: "examples/mnist/mnist_train_lmdb"
    batch_size: 64
    backend: LMDB
  }
}
layer {
  name: "conv1"
  type: "Convolution"
  bottom: "data"
  top: "conv1"
  param {
    lr_mult: 1
  }
  param {
    lr_mult: 2
  }
  convolution_param {
    num_output: 20
    kernel_size: 5
    stride: 1
    weight_filler {
      type: "gabor"
    }
    bias_filler {
      type: "constant"
    }
  }
}
layer {
  name: "pool1"
  type: "Pooling"
  bottom: "conv1"
  top: "pool1"
  pooling_param {
    pool: MAX
    kernel_size: 2
    stride: 2
  }
}
layer {
  name: "conv2"
  type: "Convolution"
  bottom: "pool1"
  top: "conv2"
  param {
    lr_mult: 1
  }
  param {
    lr_mult: 2
  }
  convolution_param {
    num_output: 50
    kernel_size: 5
    stride: 1
    weight_filler {
      type: "xavier"
    }
    bias_filler {
      type: "constant"
    }
  }
}
layer {
  name: "pool2"
  type: "Pooling"
  bottom: "conv2"
  top: "pool2"
  pooling_param {
    pool: MAX
    kernel_size: 2
    stride: 2
  }
}
layer {
  name: "ip1"
  type: "InnerProduct"
  bottom: "pool2"
  top: "ip1"
  param {
    lr_mult: 1
  }
  param {
    lr_mult: 2
  }
  inner_product_param {
    num_output: 500
    weight_filler {
      type: "xavier"
    }
    bias_filler {
      type: "constant"
    }
  }
}
layer {
  name: "relu1"
  type: "ReLU"
  bottom: "ip1"
  top: "ip1"
}
layer {
  name: "ip2"
  type: "InnerProduct"
  bottom: "ip1"
  top: "ip2"
  param {
    lr_mult: 1
  }
  param {
    lr_mult: 2
  }
  inner_product_param {
    num_output: 10
    weight_filler {
      type: "xavier"
    }
    bias_filler {
      type: "constant"
    }
  }
}
layer {
  name: "loss"
  type: "SoftmaxWithLoss"
  bottom: "ip2"
  bottom: "label"
  top: "loss"
}
I1221 15:47:56.384004 30043 layer_factory.hpp:77] Creating layer mnist
I1221 15:47:56.403522 30043 net.cpp:100] Creating Layer mnist
I1221 15:47:56.403798 30043 net.cpp:408] mnist -> data
I1221 15:47:56.410639 30043 net.cpp:408] mnist -> label
I1221 15:47:56.449990 30046 db_lmdb.cpp:35] Opened lmdb examples/mnist/mnist_train_lmdb
I1221 15:47:56.484972 30043 data_layer.cpp:41] output data size: 64,1,28,28
I1221 15:47:56.485751 30043 net.cpp:150] Setting up mnist
I1221 15:47:56.485957 30043 net.cpp:157] Top shape: 64 1 28 28 (50176)
I1221 15:47:56.486059 30043 net.cpp:157] Top shape: 64 (64)
I1221 15:47:56.486156 30043 net.cpp:165] Memory required for data: 200960
I1221 15:47:56.486261 30043 layer_factory.hpp:77] Creating layer conv1
I1221 15:47:56.486520 30043 net.cpp:100] Creating Layer conv1
I1221 15:47:56.486620 30043 net.cpp:434] conv1 <- data
I1221 15:47:56.486728 30043 net.cpp:408] conv1 -> conv1
I1221 15:47:56.494201 30043 net.cpp:150] Setting up conv1
I1221 15:47:56.494238 30043 net.cpp:157] Top shape: 64 20 24 24 (737280)
I1221 15:47:56.494251 30043 net.cpp:165] Memory required for data: 3150080
I1221 15:47:56.494339 30043 layer_factory.hpp:77] Creating layer pool1
I1221 15:47:56.494420 30043 net.cpp:100] Creating Layer pool1
I1221 15:47:56.494427 30043 net.cpp:434] pool1 <- conv1
I1221 15:47:56.494460 30043 net.cpp:408] pool1 -> pool1
I1221 15:47:56.494637 30043 net.cpp:150] Setting up pool1
I1221 15:47:56.494647 30043 net.cpp:157] Top shape: 64 20 12 12 (184320)
I1221 15:47:56.494653 30043 net.cpp:165] Memory required for data: 3887360
I1221 15:47:56.494659 30043 layer_factory.hpp:77] Creating layer conv2
I1221 15:47:56.494673 30043 net.cpp:100] Creating Layer conv2
I1221 15:47:56.494680 30043 net.cpp:434] conv2 <- pool1
I1221 15:47:56.494690 30043 net.cpp:408] conv2 -> conv2
I1221 15:47:56.495085 30043 net.cpp:150] Setting up conv2
I1221 15:47:56.495105 30043 net.cpp:157] Top shape: 64 50 8 8 (204800)
I1221 15:47:56.495111 30043 net.cpp:165] Memory required for data: 4706560
I1221 15:47:56.495124 30043 layer_factory.hpp:77] Creating layer pool2
I1221 15:47:56.495136 30043 net.cpp:100] Creating Layer pool2
I1221 15:47:56.495142 30043 net.cpp:434] pool2 <- conv2
I1221 15:47:56.495151 30043 net.cpp:408] pool2 -> pool2
I1221 15:47:56.495165 30043 net.cpp:150] Setting up pool2
I1221 15:47:56.495173 30043 net.cpp:157] Top shape: 64 50 4 4 (51200)
I1221 15:47:56.495179 30043 net.cpp:165] Memory required for data: 4911360
I1221 15:47:56.495185 30043 layer_factory.hpp:77] Creating layer ip1
I1221 15:47:56.495231 30043 net.cpp:100] Creating Layer ip1
I1221 15:47:56.495239 30043 net.cpp:434] ip1 <- pool2
I1221 15:47:56.495249 30043 net.cpp:408] ip1 -> ip1
I1221 15:47:56.499626 30043 net.cpp:150] Setting up ip1
I1221 15:47:56.499656 30043 net.cpp:157] Top shape: 64 500 (32000)
I1221 15:47:56.499665 30043 net.cpp:165] Memory required for data: 5039360
I1221 15:47:56.499685 30043 layer_factory.hpp:77] Creating layer relu1
I1221 15:47:56.499697 30043 net.cpp:100] Creating Layer relu1
I1221 15:47:56.499704 30043 net.cpp:434] relu1 <- ip1
I1221 15:47:56.499714 30043 net.cpp:395] relu1 -> ip1 (in-place)
I1221 15:47:56.499976 30043 net.cpp:150] Setting up relu1
I1221 15:47:56.500082 30043 net.cpp:157] Top shape: 64 500 (32000)
I1221 15:47:56.500092 30043 net.cpp:165] Memory required for data: 5167360
I1221 15:47:56.500138 30043 layer_factory.hpp:77] Creating layer ip2
I1221 15:47:56.500229 30043 net.cpp:100] Creating Layer ip2
I1221 15:47:56.500277 30043 net.cpp:434] ip2 <- ip1
I1221 15:47:56.500365 30043 net.cpp:408] ip2 -> ip2
I1221 15:47:56.500641 30043 net.cpp:150] Setting up ip2
I1221 15:47:56.500654 30043 net.cpp:157] Top shape: 64 10 (640)
I1221 15:47:56.500794 30043 net.cpp:165] Memory required for data: 5169920
I1221 15:47:56.500857 30043 layer_factory.hpp:77] Creating layer loss
I1221 15:47:56.501134 30043 net.cpp:100] Creating Layer loss
I1221 15:47:56.501152 30043 net.cpp:434] loss <- ip2
I1221 15:47:56.501165 30043 net.cpp:434] loss <- label
I1221 15:47:56.501183 30043 net.cpp:408] loss -> loss
I1221 15:47:56.501827 30043 layer_factory.hpp:77] Creating layer loss
…
I1221 15:47:56.503885 30043 solver.cpp:181] Creating test net (#0) specified by net file: examples/mnist/lenet_train_test.prototxt
I1221 15:47:56.503931 30043 net.cpp:322] The NetState phase (1) differed from the phase (0) specified by a rule in layer mnist
I1221 15:47:56.504184 30043 net.cpp:58] Initializing net from parameters: 
name: "LeNet"
state {
  phase: TEST
}
layer {
  name: "mnist"
  type: "Data"
  top: "data"
  top: "label"
  include {
    phase: TEST
  }
  transform_param {
    scale: 0.00390625
  }
  data_param {
    source: "examples/mnist/mnist_test_lmdb"
    batch_size: 100
    backend: LMDB
  }
}
layer {
  name: "conv1"
  type: "Convolution"
  bottom: "data"
  top: "conv1"
  param {
    lr_mult: 1
  }
  param {
    lr_mult: 2
  }
  convolution_param {
    num_output: 20
    kernel_size: 5
    stride: 1
    weight_filler {
      type: "gabor"
    }
    bias_filler {
      type: "constant"
    }
  }
}
layer {
  name: "pool1"
  type: "Pooling"
  bottom: "conv1"
  top: "pool1"
  pooling_param {
    pool: MAX
    kernel_size: 2
    stride: 2
  }
}
layer {
  name: "conv2"
  type: "Convolution"
  bottom: "pool1"
  top: "conv2"
  param {
    lr_mult: 1
  }
  param {
    lr_mult: 2
  }
  convolution_param {
    num_output: 50
    kernel_size: 5
    stride: 1
    weight_filler {
      type: "xavier"
    }
    bias_filler {
      type: "constant"
    }
  }
}
layer {
  name: "pool2"
  type: "Pooling"
  bottom: "conv2"
  top: "pool2"
  pooling_param {
    pool: MAX
    kernel_size: 2
    stride: 2
  }
}
layer {
  name: "ip1"
  type: "InnerProduct"
  bottom: "pool2"
  top: "ip1"
  param {
    lr_mult: 1
  }
  param {
    lr_mult: 2
  }
  inner_product_param {
    num_output: 500
    weight_filler {
      type: "xavier"
    }
    bias_filler {
      type: "constant"
    }
  }
}
layer {
  name: "relu1"
  type: "ReLU"
  bottom: "ip1"
  top: "ip1"
}
layer {
  name: "ip2"
  type: "InnerProduct"
  bottom: "ip1"
  top: "ip2"
  param {
    lr_mult: 1
  }
  param {
    lr_mult: 2
  }
  inner_product_param {
    num_output: 10
    weight_filler {
      type: "xavier"
    }
    bias_filler {
      type: "constant"
    }
  }
}
layer {
  name: "accuracy"
  type: "Accuracy"
  bottom: "ip2"
  bottom: "label"
  top: "accuracy"
  include {
    phase: TEST
  }
}
layer {
  name: "loss"
  type: "SoftmaxWithLoss"
  bottom: "ip2"
  bottom: "label"
  top: "loss"
}
I1221 15:47:56.504333 30043 layer_factory.hpp:77] Creating layer mnist
I1221 15:47:56.504524 30043 net.cpp:100] Creating Layer mnist
I1221 15:47:56.504539 30043 net.cpp:408] mnist -> data
I1221 15:47:56.504554 30043 net.cpp:408] mnist -> label
I1221 15:47:56.521649 30048 db_lmdb.cpp:35] Opened lmdb examples/mnist/mnist_test_lmdb
I1221 15:47:56.527379 30043 data_layer.cpp:41] output data size: 100,1,28,28
I1221 15:47:56.541755 30043 net.cpp:150] Setting up mnist
I1221 15:47:56.541983 30043 net.cpp:157] Top shape: 100 1 28 28 (78400)
I1221 15:47:56.542726 30043 net.cpp:157] Top shape: 100 (100)
I1221 15:47:56.543025 30043 net.cpp:165] Memory required for data: 314000
I1221 15:47:56.543135 30043 layer_factory.hpp:77] Creating layer label_mnist_1_split
I1221 15:47:56.543249 30043 net.cpp:100] Creating Layer label_mnist_1_split
I1221 15:47:56.543350 30043 net.cpp:434] label_mnist_1_split <- label
I1221 15:47:56.543460 30043 net.cpp:408] label_mnist_1_split -> label_mnist_1_split_0
I1221 15:47:56.543576 30043 net.cpp:408] label_mnist_1_split -> label_mnist_1_split_1
I1221 15:47:56.543750 30043 net.cpp:150] Setting up label_mnist_1_split
I1221 15:47:56.543859 30043 net.cpp:157] Top shape: 100 (100)
I1221 15:47:56.543962 30043 net.cpp:157] Top shape: 100 (100)
I1221 15:47:56.544062 30043 net.cpp:165] Memory required for data: 314800
I1221 15:47:56.544162 30043 layer_factory.hpp:77] Creating layer conv1
I1221 15:47:56.544284 30043 net.cpp:100] Creating Layer conv1
I1221 15:47:56.544384 30043 net.cpp:434] conv1 <- data
I1221 15:47:56.544489 30043 net.cpp:408] conv1 -> conv1
I1221 15:47:56.546847 30043 net.cpp:150] Setting up conv1
I1221 15:47:56.547045 30043 net.cpp:157] Top shape: 100 20 24 24 (1152000)
I1221 15:47:56.547152 30043 net.cpp:165] Memory required for data: 4922800
I1221 15:47:56.547263 30043 layer_factory.hpp:77] Creating layer pool1
I1221 15:47:56.547417 30043 net.cpp:100] Creating Layer pool1
I1221 15:47:56.547538 30043 net.cpp:434] pool1 <- conv1
I1221 15:47:56.547720 30043 net.cpp:408] pool1 -> pool1
I1221 15:47:56.547904 30043 net.cpp:150] Setting up pool1
I1221 15:47:56.548043 30043 net.cpp:157] Top shape: 100 20 12 12 (288000)
I1221 15:47:56.548322 30043 net.cpp:165] Memory required for data: 6074800
I1221 15:47:56.548462 30043 layer_factory.hpp:77] Creating layer conv2
I1221 15:47:56.548615 30043 net.cpp:100] Creating Layer conv2
I1221 15:47:56.548751 30043 net.cpp:434] conv2 <- pool1
I1221 15:47:56.548895 30043 net.cpp:408] conv2 -> conv2
I1221 15:47:56.549371 30043 net.cpp:150] Setting up conv2
I1221 15:47:56.549556 30043 net.cpp:157] Top shape: 100 50 8 8 (320000)
I1221 15:47:56.549692 30043 net.cpp:165] Memory required for data: 7354800
I1221 15:47:56.549836 30043 layer_factory.hpp:77] Creating layer pool2
I1221 15:47:56.549980 30043 net.cpp:100] Creating Layer pool2
I1221 15:47:56.550154 30043 net.cpp:434] pool2 <- conv2
I1221 15:47:56.550292 30043 net.cpp:408] pool2 -> pool2
I1221 15:47:56.550436 30043 net.cpp:150] Setting up pool2
I1221 15:47:56.550449 30043 net.cpp:157] Top shape: 100 50 4 4 (80000)
I1221 15:47:56.550495 30043 net.cpp:165] Memory required for data: 7674800
I1221 15:47:56.550628 30043 layer_factory.hpp:77] Creating layer ip1
I1221 15:47:56.551075 30043 net.cpp:100] Creating Layer ip1
I1221 15:47:56.551213 30043 net.cpp:434] ip1 <- pool2
I1221 15:47:56.551354 30043 net.cpp:408] ip1 -> ip1
I1221 15:47:56.556120 30043 net.cpp:150] Setting up ip1
I1221 15:47:56.556157 30043 net.cpp:157] Top shape: 100 500 (50000)
I1221 15:47:56.556164 30043 net.cpp:165] Memory required for data: 7874800
I1221 15:47:56.556365 30043 layer_factory.hpp:77] Creating layer relu1
I1221 15:47:56.556471 30043 net.cpp:100] Creating Layer relu1
I1221 15:47:56.556484 30043 net.cpp:434] relu1 <- ip1
I1221 15:47:56.556661 30043 net.cpp:395] relu1 -> ip1 (in-place)
I1221 15:47:56.556761 30043 net.cpp:150] Setting up relu1
I1221 15:47:56.556776 30043 net.cpp:157] Top shape: 100 500 (50000)
I1221 15:47:56.556866 30043 net.cpp:165] Memory required for data: 8074800
I1221 15:47:56.556958 30043 layer_factory.hpp:77] Creating layer ip2
I1221 15:47:56.557144 30043 net.cpp:100] Creating Layer ip2
I1221 15:47:56.557157 30043 net.cpp:434] ip2 <- ip1
I1221 15:47:56.557317 30043 net.cpp:408] ip2 -> ip2
I1221 15:47:56.557482 30043 net.cpp:150] Setting up ip2
I1221 15:47:56.557495 30043 net.cpp:157] Top shape: 100 10 (1000)
I1221 15:47:56.557588 30043 net.cpp:165] Memory required for data: 8078800
I1221 15:47:56.557767 30043 layer_factory.hpp:77] Creating layer ip2_ip2_0_split
I1221 15:47:56.557783 30043 net.cpp:100] Creating Layer ip2_ip2_0_split
I1221 15:47:56.557790 30043 net.cpp:434] ip2_ip2_0_split <- ip2
I1221 15:47:56.557798 30043 net.cpp:408] ip2_ip2_0_split -> ip2_ip2_0_split_0
I1221 15:47:56.557808 30043 net.cpp:408] ip2_ip2_0_split -> ip2_ip2_0_split_1
I1221 15:47:56.557867 30043 net.cpp:150] Setting up ip2_ip2_0_split
I1221 15:47:56.557951 30043 net.cpp:157] Top shape: 100 10 (1000)
I1221 15:47:56.557963 30043 net.cpp:157] Top shape: 100 10 (1000)
I1221 15:47:56.557970 30043 net.cpp:165] Memory required for data: 8086800
I1221 15:47:56.557976 30043 layer_factory.hpp:77] Creating layer accuracy
I1221 15:47:56.558117 30043 net.cpp:100] Creating Layer accuracy
I1221 15:47:56.558130 30043 net.cpp:434] accuracy <- ip2_ip2_0_split_0
I1221 15:47:56.558137 30043 net.cpp:434] accuracy <- label_mnist_1_split_0
I1221 15:47:56.558152 30043 net.cpp:408] accuracy -> accuracy
…
