…
I1221 18:57:29.437531 30922 net.cpp:322] The NetState phase (0) differed from the phase (1) specified by a rule in layer mnist
I1221 18:57:29.437548 30922 net.cpp:322] The NetState phase (0) differed from the phase (1) specified by a rule in layer accuracy
I1221 18:57:29.437644 30922 net.cpp:58] Initializing net from parameters: 
name: "LeNet"
state {
  phase: TRAIN
  level: 0
  stage: ""
}
layer {
  name: "mnist"
  type: "Data"
  top: "data"
  top: "label"
  include {
    phase: TRAIN
  }
  transform_param {
    scale: 0.00390625
  }
  data_param {
    source: "examples/mnist/mnist_train_lmdb"
    batch_size: 64
    backend: LMDB
  }
}
layer {
  name: "conv1"
  type: "Convolution"
  bottom: "data"
  top: "conv1"
  param {
    lr_mult: 1
  }
  param {
    lr_mult: 2
  }
  convolution_param {
    num_output: 20
    kernel_size: 5
    stride: 1
    weight_filler {
      type: "sobel"
    }
    bias_filler {
      type: "constant"
    }
  }
}
layer {
  name: "pool1"
  type: "Pooling"
  bottom: "conv1"
  top: "pool1"
  pooling_param {
    pool: MAX
    kernel_size: 2
    stride: 2
  }
}
layer {
  name: "conv2"
  type: "Convolution"
  bottom: "pool1"
  top: "conv2"
  param {
    lr_mult: 1
  }
  param {
    lr_mult: 2
  }
  convolution_param {
    num_output: 50
    kernel_size: 5
    stride: 1
    weight_filler {
      type: "xavier"
    }
    bias_filler {
      type: "constant"
    }
  }
}
layer {
  name: "pool2"
  type: "Pooling"
  bottom: "conv2"
  top: "pool2"
  pooling_param {
    pool: MAX
    kernel_size: 2
    stride: 2
  }
}
layer {
  name: "ip1"
  type: "InnerProduct"
  bottom: "pool2"
  top: "ip1"
  param {
    lr_mult: 1
  }
  param {
    lr_mult: 2
  }
  inner_product_param {
    num_output: 500
    weight_filler {
      type: "xavier"
    }
    bias_filler {
      type: "constant"
    }
  }
}
layer {
  name: "relu1"
  type: "ReLU"
  bottom: "ip1"
  top: "ip1"
}
layer {
  name: "ip2"
  type: "InnerProduct"
  bottom: "ip1"
  top: "ip2"
  param {
    lr_mult: 1
  }
  param {
    lr_mult: 2
  }
  inner_product_param {
    num_output: 10
    weight_filler {
      type: "xavier"
    }
    bias_filler {
      type: "constant"
    }
  }
}
layer {
  name: "loss"
  type: "SoftmaxWithLoss"
  bottom: "ip2"
  bottom: "label"
  top: "loss"
}
I1221 18:57:29.437718 30922 layer_factory.hpp:77] Creating layer mnist
I1221 18:57:29.438140 30922 net.cpp:100] Creating Layer mnist
I1221 18:57:29.438153 30922 net.cpp:408] mnist -> data
I1221 18:57:29.438182 30922 net.cpp:408] mnist -> label
I1221 18:57:29.438750 30923 db_lmdb.cpp:35] Opened lmdb examples/mnist/mnist_train_lmdb
I1221 18:57:29.438843 30922 data_layer.cpp:41] output data size: 64,1,28,28
I1221 18:57:29.439226 30922 net.cpp:150] Setting up mnist
I1221 18:57:29.439249 30922 net.cpp:157] Top shape: 64 1 28 28 (50176)
I1221 18:57:29.439258 30922 net.cpp:157] Top shape: 64 (64)
I1221 18:57:29.439265 30922 net.cpp:165] Memory required for data: 200960
I1221 18:57:29.439275 30922 layer_factory.hpp:77] Creating layer conv1
I1221 18:57:29.439283 30924 blocking_queue.cpp:50] Waiting for data
I1221 18:57:29.439297 30922 net.cpp:100] Creating Layer conv1
I1221 18:57:29.439306 30922 net.cpp:434] conv1 <- data
I1221 18:57:29.439322 30922 net.cpp:408] conv1 -> conv1
I1221 18:57:29.439388 30922 net.cpp:150] Setting up conv1
I1221 18:57:29.439398 30922 net.cpp:157] Top shape: 64 20 24 24 (737280)
I1221 18:57:29.439402 30922 net.cpp:165] Memory required for data: 3150080
I1221 18:57:29.439420 30922 layer_factory.hpp:77] Creating layer pool1
I1221 18:57:29.439432 30922 net.cpp:100] Creating Layer pool1
I1221 18:57:29.439460 30922 net.cpp:434] pool1 <- conv1
I1221 18:57:29.439469 30922 net.cpp:408] pool1 -> pool1
I1221 18:57:29.439491 30922 net.cpp:150] Setting up pool1
I1221 18:57:29.439499 30922 net.cpp:157] Top shape: 64 20 12 12 (184320)
I1221 18:57:29.439504 30922 net.cpp:165] Memory required for data: 3887360
I1221 18:57:29.439510 30922 layer_factory.hpp:77] Creating layer conv2
I1221 18:57:29.439522 30922 net.cpp:100] Creating Layer conv2
I1221 18:57:29.439528 30922 net.cpp:434] conv2 <- pool1
I1221 18:57:29.439538 30922 net.cpp:408] conv2 -> conv2
I1221 18:57:29.439836 30922 net.cpp:150] Setting up conv2
I1221 18:57:29.439851 30922 net.cpp:157] Top shape: 64 50 8 8 (204800)
I1221 18:57:29.439857 30922 net.cpp:165] Memory required for data: 4706560
I1221 18:57:29.439868 30922 layer_factory.hpp:77] Creating layer pool2
I1221 18:57:29.439879 30922 net.cpp:100] Creating Layer pool2
I1221 18:57:29.439885 30922 net.cpp:434] pool2 <- conv2
I1221 18:57:29.439894 30922 net.cpp:408] pool2 -> pool2
I1221 18:57:29.439906 30922 net.cpp:150] Setting up pool2
I1221 18:57:29.439915 30922 net.cpp:157] Top shape: 64 50 4 4 (51200)
I1221 18:57:29.439920 30922 net.cpp:165] Memory required for data: 4911360
I1221 18:57:29.439926 30922 layer_factory.hpp:77] Creating layer ip1
I1221 18:57:29.439936 30922 net.cpp:100] Creating Layer ip1
I1221 18:57:29.439942 30922 net.cpp:434] ip1 <- pool2
I1221 18:57:29.439951 30922 net.cpp:408] ip1 -> ip1
I1221 18:57:29.444324 30922 net.cpp:150] Setting up ip1
I1221 18:57:29.444416 30922 net.cpp:157] Top shape: 64 500 (32000)
I1221 18:57:29.444474 30922 net.cpp:165] Memory required for data: 5039360
I1221 18:57:29.444543 30922 layer_factory.hpp:77] Creating layer relu1
I1221 18:57:29.444605 30922 net.cpp:100] Creating Layer relu1
I1221 18:57:29.444701 30922 net.cpp:434] relu1 <- ip1
I1221 18:57:29.444762 30922 net.cpp:395] relu1 -> ip1 (in-place)
I1221 18:57:29.444866 30922 net.cpp:150] Setting up relu1
I1221 18:57:29.444926 30922 net.cpp:157] Top shape: 64 500 (32000)
I1221 18:57:29.445376 30922 net.cpp:165] Memory required for data: 5167360
I1221 18:57:29.445433 30922 layer_factory.hpp:77] Creating layer ip2
I1221 18:57:29.445497 30922 net.cpp:100] Creating Layer ip2
I1221 18:57:29.445554 30922 net.cpp:434] ip2 <- ip1
I1221 18:57:29.445616 30922 net.cpp:408] ip2 -> ip2
I1221 18:57:29.445749 30922 net.cpp:150] Setting up ip2
I1221 18:57:29.445808 30922 net.cpp:157] Top shape: 64 10 (640)
I1221 18:57:29.445863 30922 net.cpp:165] Memory required for data: 5169920
I1221 18:57:29.445924 30922 layer_factory.hpp:77] Creating layer loss
I1221 18:57:29.445986 30922 net.cpp:100] Creating Layer loss
I1221 18:57:29.446041 30922 net.cpp:434] loss <- ip2
I1221 18:57:29.446099 30922 net.cpp:434] loss <- label
I1221 18:57:29.446159 30922 net.cpp:408] loss -> loss
I1221 18:57:29.446233 30922 layer_factory.hpp:77] Creating layer loss
…
I1221 18:57:29.447113 30922 solver.cpp:181] Creating test net (#0) specified by net file: examples/mnist/lenet_train_test.prototxt
I1221 18:57:29.447173 30922 net.cpp:322] The NetState phase (1) differed from the phase (0) specified by a rule in layer mnist
I1221 18:57:29.447301 30922 net.cpp:58] Initializing net from parameters: 
name: "LeNet"
state {
  phase: TEST
}
layer {
  name: "mnist"
  type: "Data"
  top: "data"
  top: "label"
  include {
    phase: TEST
  }
  transform_param {
    scale: 0.00390625
  }
  data_param {
    source: "examples/mnist/mnist_test_lmdb"
    batch_size: 100
    backend: LMDB
  }
}
layer {
  name: "conv1"
  type: "Convolution"
  bottom: "data"
  top: "conv1"
  param {
    lr_mult: 1
  }
  param {
    lr_mult: 2
  }
  convolution_param {
    num_output: 20
    kernel_size: 5
    stride: 1
    weight_filler {
      type: "sobel"
    }
    bias_filler {
      type: "constant"
    }
  }
}
layer {
  name: "pool1"
  type: "Pooling"
  bottom: "conv1"
  top: "pool1"
  pooling_param {
    pool: MAX
    kernel_size: 2
    stride: 2
  }
}
layer {
  name: "conv2"
  type: "Convolution"
  bottom: "pool1"
  top: "conv2"
  param {
    lr_mult: 1
  }
  param {
    lr_mult: 2
  }
  convolution_param {
    num_output: 50
    kernel_size: 5
    stride: 1
    weight_filler {
      type: "xavier"
    }
    bias_filler {
      type: "constant"
    }
  }
}
layer {
  name: "pool2"
  type: "Pooling"
  bottom: "conv2"
  top: "pool2"
  pooling_param {
    pool: MAX
    kernel_size: 2
    stride: 2
  }
}
layer {
  name: "ip1"
  type: "InnerProduct"
  bottom: "pool2"
  top: "ip1"
  param {
    lr_mult: 1
  }
  param {
    lr_mult: 2
  }
  inner_product_param {
    num_output: 500
    weight_filler {
      type: "xavier"
    }
    bias_filler {
      type: "constant"
    }
  }
}
layer {
  name: "relu1"
  type: "ReLU"
  bottom: "ip1"
  top: "ip1"
}
layer {
  name: "ip2"
  type: "InnerProduct"
  bottom: "ip1"
  top: "ip2"
  param {
    lr_mult: 1
  }
  param {
    lr_mult: 2
  }
  inner_product_param {
    num_output: 10
    weight_filler {
      type: "xavier"
    }
    bias_filler {
      type: "constant"
    }
  }
}
layer {
  name: "accuracy"
  type: "Accuracy"
  bottom: "ip2"
  bottom: "label"
  top: "accuracy"
  include {
    phase: TEST
  }
}
layer {
  name: "loss"
  type: "SoftmaxWithLoss"
  bottom: "ip2"
  bottom: "label"
  top: "loss"
}
I1221 18:57:29.447393 30922 layer_factory.hpp:77] Creating layer mnist
I1221 18:57:29.447566 30922 net.cpp:100] Creating Layer mnist
I1221 18:57:29.447579 30922 net.cpp:408] mnist -> data
I1221 18:57:29.447592 30922 net.cpp:408] mnist -> label
I1221 18:57:29.447679 30925 db_lmdb.cpp:35] Opened lmdb examples/mnist/mnist_test_lmdb
I1221 18:57:29.447716 30922 data_layer.cpp:41] output data size: 100,1,28,28
I1221 18:57:29.448354 30922 net.cpp:150] Setting up mnist
I1221 18:57:29.448369 30922 net.cpp:157] Top shape: 100 1 28 28 (78400)
I1221 18:57:29.448379 30922 net.cpp:157] Top shape: 100 (100)
I1221 18:57:29.448384 30922 net.cpp:165] Memory required for data: 314000
I1221 18:57:29.448391 30922 layer_factory.hpp:77] Creating layer label_mnist_1_split
I1221 18:57:29.448403 30922 net.cpp:100] Creating Layer label_mnist_1_split
I1221 18:57:29.448410 30922 net.cpp:434] label_mnist_1_split <- label
I1221 18:57:29.448422 30922 net.cpp:408] label_mnist_1_split -> label_mnist_1_split_0
I1221 18:57:29.448436 30922 net.cpp:408] label_mnist_1_split -> label_mnist_1_split_1
I1221 18:57:29.448447 30922 net.cpp:150] Setting up label_mnist_1_split
I1221 18:57:29.448456 30922 net.cpp:157] Top shape: 100 (100)
I1221 18:57:29.448463 30922 net.cpp:157] Top shape: 100 (100)
I1221 18:57:29.448468 30922 net.cpp:165] Memory required for data: 314800
I1221 18:57:29.448473 30922 layer_factory.hpp:77] Creating layer conv1
I1221 18:57:29.448492 30922 net.cpp:100] Creating Layer conv1
I1221 18:57:29.448498 30922 net.cpp:434] conv1 <- data
I1221 18:57:29.448510 30922 net.cpp:408] conv1 -> conv1
I1221 18:57:29.448560 30922 net.cpp:150] Setting up conv1
I1221 18:57:29.448570 30922 net.cpp:157] Top shape: 100 20 24 24 (1152000)
I1221 18:57:29.448575 30922 net.cpp:165] Memory required for data: 4922800
I1221 18:57:29.448590 30922 layer_factory.hpp:77] Creating layer pool1
I1221 18:57:29.448617 30922 net.cpp:100] Creating Layer pool1
I1221 18:57:29.448624 30922 net.cpp:434] pool1 <- conv1
I1221 18:57:29.448635 30922 net.cpp:408] pool1 -> pool1
I1221 18:57:29.448649 30922 net.cpp:150] Setting up pool1
I1221 18:57:29.448657 30922 net.cpp:157] Top shape: 100 20 12 12 (288000)
I1221 18:57:29.448663 30922 net.cpp:165] Memory required for data: 6074800
I1221 18:57:29.448668 30922 layer_factory.hpp:77] Creating layer conv2
I1221 18:57:29.448683 30922 net.cpp:100] Creating Layer conv2
I1221 18:57:29.448689 30922 net.cpp:434] conv2 <- pool1
I1221 18:57:29.448701 30922 net.cpp:408] conv2 -> conv2
I1221 18:57:29.448997 30922 net.cpp:150] Setting up conv2
I1221 18:57:29.449007 30922 net.cpp:157] Top shape: 100 50 8 8 (320000)
I1221 18:57:29.449012 30922 net.cpp:165] Memory required for data: 7354800
I1221 18:57:29.449024 30922 layer_factory.hpp:77] Creating layer pool2
I1221 18:57:29.449036 30922 net.cpp:100] Creating Layer pool2
I1221 18:57:29.449043 30922 net.cpp:434] pool2 <- conv2
I1221 18:57:29.449051 30922 net.cpp:408] pool2 -> pool2
I1221 18:57:29.449064 30922 net.cpp:150] Setting up pool2
I1221 18:57:29.449071 30922 net.cpp:157] Top shape: 100 50 4 4 (80000)
I1221 18:57:29.449077 30922 net.cpp:165] Memory required for data: 7674800
I1221 18:57:29.449082 30922 layer_factory.hpp:77] Creating layer ip1
I1221 18:57:29.449098 30922 net.cpp:100] Creating Layer ip1
I1221 18:57:29.449105 30922 net.cpp:434] ip1 <- pool2
I1221 18:57:29.449115 30922 net.cpp:408] ip1 -> ip1
I1221 18:57:29.454501 30922 net.cpp:150] Setting up ip1
I1221 18:57:29.454535 30922 net.cpp:157] Top shape: 100 500 (50000)
I1221 18:57:29.454541 30922 net.cpp:165] Memory required for data: 7874800
I1221 18:57:29.454561 30922 layer_factory.hpp:77] Creating layer relu1
I1221 18:57:29.454576 30922 net.cpp:100] Creating Layer relu1
I1221 18:57:29.454583 30922 net.cpp:434] relu1 <- ip1
I1221 18:57:29.454596 30922 net.cpp:395] relu1 -> ip1 (in-place)
I1221 18:57:29.454610 30922 net.cpp:150] Setting up relu1
I1221 18:57:29.454618 30922 net.cpp:157] Top shape: 100 500 (50000)
I1221 18:57:29.454623 30922 net.cpp:165] Memory required for data: 8074800
I1221 18:57:29.454629 30922 layer_factory.hpp:77] Creating layer ip2
I1221 18:57:29.454643 30922 net.cpp:100] Creating Layer ip2
I1221 18:57:29.454650 30922 net.cpp:434] ip2 <- ip1
I1221 18:57:29.454665 30922 net.cpp:408] ip2 -> ip2
I1221 18:57:29.454742 30922 net.cpp:150] Setting up ip2
I1221 18:57:29.454751 30922 net.cpp:157] Top shape: 100 10 (1000)
I1221 18:57:29.454756 30922 net.cpp:165] Memory required for data: 8078800
I1221 18:57:29.454766 30922 layer_factory.hpp:77] Creating layer ip2_ip2_0_split
I1221 18:57:29.454778 30922 net.cpp:100] Creating Layer ip2_ip2_0_split
I1221 18:57:29.454784 30922 net.cpp:434] ip2_ip2_0_split <- ip2
I1221 18:57:29.454805 30922 net.cpp:408] ip2_ip2_0_split -> ip2_ip2_0_split_0
I1221 18:57:29.454824 30922 net.cpp:408] ip2_ip2_0_split -> ip2_ip2_0_split_1
I1221 18:57:29.454836 30922 net.cpp:150] Setting up ip2_ip2_0_split
I1221 18:57:29.454844 30922 net.cpp:157] Top shape: 100 10 (1000)
I1221 18:57:29.454852 30922 net.cpp:157] Top shape: 100 10 (1000)
I1221 18:57:29.454859 30922 net.cpp:165] Memory required for data: 8086800
I1221 18:57:29.454864 30922 layer_factory.hpp:77] Creating layer accuracy
I1221 18:57:29.454874 30922 net.cpp:100] Creating Layer accuracy
I1221 18:57:29.454880 30922 net.cpp:434] accuracy <- ip2_ip2_0_split_0
I1221 18:57:29.454887 30922 net.cpp:434] accuracy <- label_mnist_1_split_0
I1221 18:57:29.454895 30922 net.cpp:408] accuracy -> accuracy
…
